LSTM/model1/model1.pth (torch, 5118 bytes, 5 tensors)

lstm.weight_ih_l0 f4 [40, 5]
0	0xbfb7e74d	-1.4367462
1	0x3ec621e0	0.3869772
2	0xbf0f20a6	-0.5590919
3	0xbea89687	-0.32927343
4	0xbeb8e2be	-0.3611049
5	0x3d619386	0.05507233
6	0x3f47e7c9	0.7808805
7	0x3f70e8f9	0.9410549
8	0x3edec5f2	0.43510395
9	0x3ddd331a	0.108007625
10	0xc0aa08fa	-5.313596
11	0xbe598d5f	-0.21245335
12	0xbdd08b05	-0.10182766
13	0xbeb7308c	-0.35779226
14	0xbf8af92e	-1.0857294
15	0x3fd538c3	1.6657947
16	0x3ef78933	0.48346862
17	0x3eb6fa74	0.35737956
18	0xbf9be550	-1.2179356
19	0x3fcca671	1.5988294
20	0x3f1ed892	0.6204921
21	0x3f755e48	0.95846987
22	0x3f47b479	0.78009754
23	0x3eab0551	0.33402494
24	0x3f01c591	0.5069209
25	0xbe826fdc	-0.25475967
26	0xbedb74ee	-0.42862648
27	0x3f05d9f9	0.52285725
28	0xbf6e0f87	-0.9299244
29	0x3f60d29e	0.87821376
30	0xbfe8f8ca	-1.8200924
31	0xbd3c4f2e	-0.04597395
32	0xbf8399f3	-1.0281357
33	0x3f1afe64	0.6054442
34	0xbea7dccf	-0.3278565
35	0x3fa27d40	1.2694473
36	0x3f035751	0.5130511
37	0xc017aae6	-2.3698058
38	0x3ed90319	0.42385176
39	0x3f1d7b9f	0.61516756
40	0xbfc02218	-1.5010405
41	0xbf8dc589	-1.1075908
42	0x3f703e79	0.93845326
43	0xbe891fef	-0.26782176
44	0xbf11b023	-0.5690939
45	0xbf1d0a6c	-0.6134403
46	0x3f6b92c4	0.9202082
47	0x3e07ece8	0.13273966
48	0x3e7cb3c8	0.24677956
49	0x3d5bb25d	0.053636897
50	0xc02452a9	-2.5675452
51	0xbdc8180f	-0.09770214
52	0x3e9ebdd2	0.31004196
53	0xbf37f4fb	-0.71858186
54	0x3d9559b9	0.07292504
55	0x3fdcc043	1.7246174
56	0x3f30c9f7	0.69058174
57	0x3f869c22	1.0516398
58	0x3fc4eca7	1.538472
59	0x3f6ae13e	0.9174994
60	0x3eb011c2	0.34388548
61	0x3f04eb7f	0.5192184
62	0x3e858e21	0.26084998
63	0x3f5ae8ed	0.85511667
64	0xbf1f3c5f	-0.62201494
65	0xbd953873	-0.072861575
66	0xbf471e80	-0.77780914
67	0x3f335c04	0.7006228
68	0xbed99176	-0.4249379
69	0xbf4f582c	-0.80993915
70	0x4074f595	3.8274891
71	0x3ef37708	0.4755175
72	0x3f038c14	0.5138562
73	0x3e083e16	0.13304934
74	0xc072ebc9	-3.7956412
75	0x3f8fb400	1.1226807
76	0x3ca2ad9b	0.019858172
77	0xc02833c6	-2.62816
78	0x3ee405cf	0.44535682
79	0x3f4d7849	0.80261666
80	0x3f2876ad	0.65806085
81	0xbf0d302a	-0.5515162
82	0xbe1aa966	-0.15103683
83	0x3dc2f277	0.09518903
84	0xbed6faab	-0.4198812
85	0xbee6d1b9	-0.4508188
86	0x3e1fb554	0.15596515
87	0xbf3004c9	-0.687573
88	0xbece688f	-0.40314147
89	0xbea09afb	-0.3136824
90	0x3f8780b7	1.0586156
91	0xbf55b36d	-0.83476907
92	0x3d9f0d7a	0.07766242
93	0xbdf99150	-0.12185919
94	0xbd8d7543	-0.069071315
95	0xbfddcd0e	-1.7328203
96	0x39f615d4	0.0004693704
97	0xbd2eed6c	-0.042706892
98	0xbd977b6f	-0.0739659
99	0xc007bf8b	-2.1210659
100	0x3eb98e5d	0.36241427
101	0x3f610c9e	0.8790988
102	0x3fa584c7	1.2931145
103	0x3eb5e4b3	0.35526046
104	0x3e0e8642	0.13918403
105	0xbe4c0647	-0.1992427
106	0x3cab011e	0.020874556
107	0xbf4c7e2b	-0.7988002
108	0x3f41ae34	0.7565644
109	0xbf7a782a	-0.97839606
110	0xbf8292a2	-1.0200999
111	0x3ee7c671	0.45268586
112	0x3ee65b6c	0.44991624
113	0x3ef35b09	0.47530392
114	0xbf182196	-0.5942625
115	0x3f885367	1.0650452
116	0xbef6b57d	-0.4818534
117	0xbf44dd0f	-0.7689981
118	0x3fbe7767	1.4880189
119	0x3f88c024	1.0683637
120	0xbfa12966	-1.2590759
121	0xbd26ac65	-0.040691752
122	0xbed77c5d	-0.4208707
123	0xbf3c4139	-0.7353702
124	0xbfb3863f	-1.4025344
125	0x3f771c28	0.9652734
126	0xbf0a766c	-0.5408695
127	0x3e24545e	0.16047809
128	0xbeddbe35	-0.4330918
129	0xbf07fc37	-0.53119224
130	0xc07dc40d	-3.965091
131	0x3f713645	0.94223434
132	0xbe230453	-0.15919618
133	0xbe5de38d	-0.21668835
134	0xbe63efe8	-0.22259486
135	0x3ff210d4	1.8911386
136	0xbebe9313	-0.37221584
137	0x3f86c831	1.0529844
138	0x3e46ccbb	0.19414036
139	0x3fa358de	1.2761495
140	0xbd02c719	-0.031928156
141	0xbf294f25	-0.6613639
142	0xbebb5bce	-0.3659348
143	0x3fab8711	1.3400594
144	0xbf02227a	-0.5083386
145	0xbdf67b1b	-0.12035199
146	0x3d5dfb0d	0.0541945
147	0x3f2ddc51	0.679143
148	0x3e96a32d	0.29421368
149	0x3e0d4c54	0.13798648
150	0x3f7ebea2	0.9950963
151	0xbd7b3d33	-0.06133766
152	0x3ed88e46	0.42296046
153	0x405f11a2	3.4854512
154	0xbf5fa05f	-0.8735408
155	0xbd90f38d	-0.070777036
156	0x3f104254	0.5635121
157	0xc0485068	-3.1299076
158	0x3f794c3a	0.9738194
159	0x3f308810	0.68957615
160	0xc379c589	-249.77162
161	0xc37978e4	-249.47223
162	0xc379c19c	-249.75629
163	0xc3795182	-249.31839
164	0xc3795034	-249.3133
165	0xc379a510	-249.64478
166	0xc3796298	-249.38513
167	0xc3799258	-249.57166
168	0xc3798092	-249.50223
169	0xc37991c5	-249.56941
170	0xc3799799	-249.59218
171	0xc3794124	-249.25446
172	0xc37978f4	-249.47247
173	0xc37968a9	-249.40883
174	0xc3798bcb	-249.54607
175	0xc3794c0a	-249.29703
176	0xc3795943	-249.34868
177	0xc37999be	-249.60056
178	0xc3793b9b	-249.23283
179	0xc3797ece	-249.49533
180	0xc379d6fd	-249.8398
181	0xc379d7b9	-249.84267
182	0xc3794498	-249.26794
183	0xc379d57c	-249.83392
184	0xc3793e70	-249.2439
185	0xc3795188	-249.31848
186	0xc3796663	-249.39995
187	0xc379c051	-249.75124
188	0xc3793ebf	-249.2451
189	0xc379b2cd	-249.69844
190	0xc379406b	-249.25163
191	0xc379845d	-249.51704
192	0xc3799b0d	-249.60567
193	0xc3798b81	-249.54494
194	0xc3795c07	-249.35948
195	0xc37997fa	-249.59366
196	0xc379d9c5	-249.85066
197	0xc379d704	-249.8399
198	0xc3797987	-249.47472
199	0xc379d2d4	-249.82355

lstm.weight_hh_l0 f4 [40, 10]
0	0xbf85d21f	-1.0454749
1	0xbefcc790	-0.49371004
2	0xbfefd3b8	-1.8736486
3	0xbf30b3a7	-0.6902413
4	0xbfc85df5	-1.5653673
5	0xbf41eb10	-0.757493
6	0x3eb51d9a	0.35374147
7	0x3fa4da6b	1.2879156
8	0x401f1316	2.48554
9	0xbf9664b8	-1.1749487
10	0x3fddcbd4	1.7327828
11	0x3f5e2f5f	0.8679103
12	0x3fe52c60	1.7904167
13	0xbfcc9292	-1.598223
14	0x3eae0aea	0.33992702
15	0x3e76da0e	0.24106619
16	0xbdbf1614	-0.09330383
17	0x3f6cc06b	0.92481107
18	0xbf748add	-0.9552439
19	0x4026058b	2.5940883
20	0xbe03254b	-0.12807195
21	0xbe3c98f6	-0.18417725
22	0xbec48449	-0.38382176
23	0x3ff3a8c7	1.9035882
24	0x3f5e285d	0.8678034
25	0xbf44293e	-0.7662543
26	0x3f56f093	0.8396084
27	0x3ff304b2	1.8985808
28	0x4018067e	2.3753963
29	0xbfc48a67	-1.5354737
30	0xbe95ba87	-0.29243872
31	0x3ed28bcf	0.4112229
32	0xbfd7c011	-1.6855489
33	0xbe4e90cb	-0.20172422
34	0x3f3794dd	0.7171152
35	0x3c29d1b6	0.01036494
36	0xbe63c21f	-0.2224202
37	0xbf05fd52	-0.5233966
38	0x4054e00a	3.3261743
39	0xbfd2b819	-1.6462432
40	0x402f2b87	2.7370317
41	0xc0b833f2	-5.756341
42	0xbfe07da3	-1.7538341
43	0xbee0caa8	-0.43904614
44	0x4037a788	2.8696003
45	0xbf751d1b	-0.95747536
46	0x3f7bba0e	0.9833077
47	0x400850f4	2.129941
48	0x4093f93c	4.624174
49	0x3fd28175	1.6445757
50	0xbde1aa09	-0.1101876
51	0xbf1fa778	-0.6236491
52	0xbf331a75	-0.69962245
53	0x3f7ccb9a	0.9874817
54	0xbefbc231	-0.49171594
55	0x397bec7a	0.0002402532
56	0x3d9e154e	0.07718907
57	0xc0009483	-2.0090644
58	0x40088889	2.1333334
59	0xbef6e4f5	-0.48221555
60	0x3f80bd91	1.0057851
61	0x3f366f71	0.71263796
62	0x3e8ddac5	0.2770597
63	0x3fccc115	1.5996424
64	0x3f5c5c4f	0.8607835
65	0xbf13652f	-0.5757627
66	0x3f0b5dc0	0.54439926
67	0xbef48152	-0.47754914
68	0x3e38c97d	0.18045612
69	0xbeb9c637	-0.36284038
70	0x40152ef6	2.3309913
71	0x3f75a0d6	0.9594854
72	0xbfd9ed46	-1.7025535
73	0x3e896842	0.26837355
74	0x3f8b3619	1.0875884
75	0xc02106d0	-2.5160408
76	0x3f3e086b	0.74231595
77	0x3eab7a44	0.3349172
78	0x4040fa44	3.015275
79	0xbdf9547f	-0.121743195
80	0xbea54b0a	-0.32283813
81	0xbca7c37a	-0.020478953
82	0x3dd66a30	0.104694724
83	0x3fa1f565	1.2653013
84	0x4002f90b	2.0464504
85	0xc00f18a6	-2.2358794
86	0x3fcad80e	1.5847185
87	0xc01b426d	-2.4259293
88	0xbf8e3897	-1.111102
89	0x40956f57	4.6698413
90	0x3f3f8834	0.74817204
91	0x3e3f9f16	0.1871303
92	0xbf895d83	-1.0731663
93	0x3f16c637	0.588962
94	0x3e774a0d	0.24149342
95	0xbfdda92a	-1.731725
96	0x3fbe52c2	1.4869006
97	0xbf0136a1	-0.5047398
98	0x3d6e0713	0.058112215
99	0x3f8ea864	1.1145139
100	0xc000615a	-2.0059419
101	0xbecb24c2	-0.3967648
102	0x3ef4efac	0.47839105
103	0xbed0bf9a	-0.4077118
104	0xbfa6f88e	-1.3044603
105	0xbe266ccd	-0.16252442
106	0xbdb9ddf0	-0.09075534
107	0xbf41db39	-0.7572513
108	0xbf2ddba9	-0.679133
109	0x3f24773d	0.64244443
110	0xbe921839	-0.28534105
111	0xbf0fd56e	-0.5618504
112	0xbef73f6b	-0.48290572
113	0xbfc6f5d5	-1.5543772
114	0xbf96c85d	-1.1779896
115	0x3e03bff3	0.12866192
116	0x3e9a2c94	0.30112135
117	0xbead6d1d	-0.3387231
118	0xc0295c34	-2.6462526
119	0x3fb48cf2	1.4105513
120	0x3f4b86ba	0.7950245
121	0xbd10d794	-0.03536184
122	0x3e8903ee	0.2676081
123	0x3fd85521	1.6900979
124	0x3fd313ee	1.6490457
125	0xbebb2b98	-0.36556697
126	0x3f310995	0.69155246
127	0x3eb77657	0.35832474
128	0xbfbf3213	-1.4937156
129	0xbe20db53	-0.15708666
130	0x3fe57a64	1.7927976
131	0xbf311654	-0.69174695
132	0xbf19cdc8	-0.6007962
133	0xbe9412ee	-0.28920692
134	0x3f932dce	1.1498353
135	0x3d7145e7	0.058904555
136	0x3f4ec337	0.80766624
137	0x3fe2ac2c	1.7708793
138	0x3f020965	0.50795585
139	0xbdd8363e	-0.10557221
140	0x3f07a2d9	0.5298286
141	0xc01912ba	-2.391768
142	0xbffabacf	-1.958826
143	0x3f284fdc	0.65746856
144	0x3db5e156	0.0888087
145	0x3e96fa88	0.29488015
146	0x3ef01863	0.46893606
147	0x4046cf7f	3.1064146
148	0xc03873a4	-2.8820581
149	0x3ef1612d	0.47144452
150	0x3fb4332f	1.407812
151	0xbfda7b4f	-1.7068881
152	0xbf09b6de	-0.5379466
153	0x3fd00779	1.625228
154	0xbea2d2ac	-0.31801355
155	0xbf20bad8	-0.627851
156	0xbb6b72a2	-0.003592648
157	0xc0106ea1	-2.2567523
158	0x400f42e9	2.2384589
159	0xbf0084fb	-0.5020291
160	0x3eb33f0d	0.3500904
161	0x3f6ff640	0.9373512
162	0x3f11b386	0.56914556
163	0x3f9a3eff	1.2050475
164	0x3e97090c	0.2949909
165	0xbf1af571	-0.60530764
166	0x3ee43aae	0.4457602
167	0xbead24ff	-0.33817288
168	0x3e6f1146	0.23346433
169	0xbe88cfde	-0.2672109
170	0x400db20d	2.2139924
171	0xbf43da3b	-0.7650487
172	0x3e62ce1d	0.22148938
173	0xbfe55542	-1.7916644
174	0xbf382ec3	-0.7194635
175	0xbe665670	-0.22493911
176	0xbe9795a9	-0.2960637
177	0x3f98d3e0	1.1939659
178	0x3f22dcc0	0.6361809
179	0xbd881b5d	-0.06645844
180	0x3f317de7	0.69332737
181	0x3e19034e	0.14942667
182	0xbf4b0ffd	-0.7932127
183	0x3f1ba2fe	0.6079558
184	0xbf15ffad	-0.58593255
185	0x3ed81139	0.4220064
186	0x3e45302c	0.19256657
187	0x409b597f	4.854675
188	0xbf10185e	-0.5628718
189	0xc00867e4	-2.131341
190	0x3ce50aff	0.027959345
191	0xbf43766a	-0.7635256
192	0xbef8835f	-0.48537728
193	0xbfae81a1	-1.363331
194	0x3ee7a162	0.45240313
195	0xbe7979b1	-0.24362828
196	0xbe2ec007	-0.1706544
197	0x3de21dc7	0.11040836
198	0x3fbc46f6	1.4709156
199	0xbe006c77	-0.12541376
200	0x3eb0d4b9	0.34537295
201	0x3e14d532	0.14534453
202	0xbecc597c	-0.3991202
203	0x3f40ef58	0.7536521
204	0x3fb6d87d	1.4284817
205	0xbe1d2487	-0.15345965
206	0x3e85a646	0.2610342
207	0xbe40f049	-0.18841662
208	0xbfc37d24	-1.5272565
209	0x3f8ca83e	1.0988843
210	0xbe62337f	-0.22089957
211	0xbed6dee9	-0.41966942
212	0xbf9c2691	-1.219927
213	0x401f7e61	2.4920886
214	0xbe6f737c	-0.23383898
215	0xbe63f96c	-0.22263116
216	0xbed0ec7b	-0.4080542
217	0x3f8a965e	1.0827138
218	0x3ecbf9fc	0.3983916
219	0x3f4abee8	0.7919755
220	0x3e505f7b	0.20348923
221	0x3d5c3eeb	0.05377094
222	0x3dae73e1	0.08518196
223	0xbfcf21cc	-1.6182189
224	0xbf7307dc	-0.9493387
225	0x3eee4c56	0.46542615
226	0xbe4b60e4	-0.1986118
227	0x3fc26d40	1.518959
228	0x3e61749e	0.22017142
229	0xbfd2dac4	-1.6473012
230	0xbf213281	-0.6296769
231	0xbf61925e	-0.88113964
232	0x3f492692	0.7857448
233	0xbf5132ac	-0.81717944
234	0xbf856e2f	-1.042425
235	0x3e9d0ff2	0.30676228
236	0xbeea7aca	-0.45796806
237	0xbef266ec	-0.47344148
238	0x3f23ce13	0.6398632
239	0x3efb4dae	0.49082702
240	0xbf20ed26	-0.6286186
241	0x3f094671	0.5362311
242	0x3f048b04	0.5177462
243	0x3ed4a60e	0.4153294
244	0xbf87464a	-1.0568326
245	0x3f15b804	0.5848391
246	0xbf5e9fd5	-0.86962634
247	0xc0090c28	-2.141367
248	0x3febebd2	1.8431342
249	0x3fdee2e0	1.7412987
250	0xbebce252	-0.3689142
251	0xbf4f56fc	-0.809921
252	0xbf4d47af	-0.80187505
253	0x3f55ad81	0.8346787
254	0xbeb38c11	-0.350678
255	0xbd0f1c9b	-0.03493939

lstm.bias_ih_l0 f4 [40]
0	0xbee69c75	-0.45041242
1	0xbdeb444b	-0.11487635
2	0xbf078c77	-0.5294871
3	0x3f09b023	0.5378439
4	0xbf04037c	-0.51567817
5	0x3dfff718	0.12498301
6	0xbeed1093	-0.46301708
7	0xbdc00877	-0.093766145
8	0xbf527d8c	-0.8222282
9	0xbee62030	-0.44946432
10	0xbf2e2644	-0.6802714
11	0x3d6c01c5	0.057618875
12	0xbf04e6a9	-0.5191446
13	0xbe03890b	-0.12845246
14	0xbe017ce8	-0.12645304
15	0x3dd3473e	0.10316323
16	0xbf019248	-0.5061383
17	0xbf2996d2	-0.6624576
18	0x3e02fb75	0.12791236
19	0xbe9f1b4b	-0.3107551
20	0x3e5357ea	0.20639005
21	0x3f16afe2	0.58862126
22	0xbd83c969	-0.064349
23	0x3ec9767d	0.39348212
24	0x3ee6ab1a	0.45052415
25	0x3d6855ab	0.056722324
26	0xbe2cfbeb	-0.16892974
27	0x3ccce6f9	0.02501248
28	0xbe6eec89	-0.23332419
29	0xbdb9751b	-0.09055539
30	0xbf2eefb2	-0.68334496
31	0xbe6d3a05	-0.23166664
32	0xbe77a71c	-0.24184841
33	0x3effcdd8	0.49961734
34	0x3e27eddc	0.1639933
35	0xbe6756c8	-0.22591698
36	0xbf451b54	-0.76994824
37	0xbf3d51f1	-0.7395316
38	0xbf0e10a2	-0.5549413
39	0xbf5ecd88	-0.87032366

lstm.bias_hh_l0 f4 [40]
0	0xbec3aecb	-0.38219294
1	0xbe9b44e6	-0.30326003
2	0xbebbc0df	-0.36670586
3	0x3ef29e15	0.47386232
4	0xbe4c3af9	-0.19944371
5	0xbe8121cf	-0.25221106
6	0xbf5ba6dd	-0.8580149
7	0xbd6d9e9b	-0.058012586
8	0xbf00efe9	-0.50366074
9	0xbef44cb6	-0.47714776
10	0xbe851c6f	-0.25998256
11	0xbed70dbd	-0.4200267
12	0xbe08c90a	-0.1335794
13	0xbf2e4b30	-0.6808348
14	0x3dd6dee6	0.10491733
15	0x3e178572	0.14796999
16	0xbecdf6e2	-0.4022742
17	0xbf61c0ec	-0.88185
18	0x3d964eb5	0.07339231
19	0xbed44d53	-0.41465244
20	0xbe9d606f	-0.30737635
21	0x3f0a0570	0.53914547
22	0x3ebf5307	0.37368032
23	0xbd8b2d19	-0.06795711
24	0x3e93644e	0.28787464
25	0x3eaa2b85	0.33236328
26	0xbdd18652	-0.10230698
27	0x3daff2bb	0.08591219
28	0xbed90ec8	-0.4239409
29	0xbe9b28cc	-0.30304563
30	0xbee8c388	-0.45461679
31	0xbefac7aa	-0.48980457
32	0xbf21f3ca	-0.6326262
33	0x3de21edf	0.110410444
34	0x3eb4cb3f	0.35311314
35	0xbf32674e	-0.6968888
36	0xbf01d570	-0.50716305
37	0xbf0789a1	-0.5294438
38	0xbf022953	-0.50844306
39	0xbf430210	-0.7617502

fc.weight f4 [1, 10]
0	0xbee99c1a	-0.4562691
1	0xbe820467	-0.25393984
2	0x3e978af3	0.29598197
3	0xbf477e1d	-0.7792681
4	0xbf1613ad	-0.5862377
5	0x3ee140b9	0.43994692
6	0xbea8312f	-0.32850024
7	0xbe9cb515	-0.30606905
8	0x3eb7da67	0.35908815
9	0x3ed6bc15	0.4194037
