LSTM/model2/model01.pth (torch, 5256 bytes, 5 tensors)

lstm.weight_ih_l0 f4 [40, 6]
000000 90 2c 80 3e ac eb 0f 3f 4f c4 c0 3e 15 e9 f7 3e
       0.25033998 0.5621898 0.37649772 0.48420015
000010 e9 ef 92 3e 7c 9a 78 3f 64 7b 5e 3e 38 e9 76 bd
       0.28698662 0.97110724 0.21726757 -0.06028101
000020 c8 de 83 3e 2f 80 9b 3e 25 73 a6 3e d5 96 6b 3e
       0.25755906 0.30371234 0.32509723 0.23006757
000030 da a9 71 3e 23 ab 91 3e 7f b8 d6 3d 94 bd 16 be
       0.2359995 0.2845088 0.104844086 -0.14720756
000040 58 e3 6c 3e f4 ab 19 3f ac 56 b7 3e ff a9 70 3f
       0.231336 0.60028005 0.35808313 0.94009393
000050 a6 87 24 3f a2 92 85 3f 1b b7 94 3f 7b 86 8f 3f
       0.64269483 1.0435374 1.1618379 1.1212915
000060 6d a8 70 be 85 2f 99 3e c4 c8 d7 3e d9 b7 24 3d
       -0.2350175 0.29919067 0.4214536 0.040214393
000070 ef 16 fe bc 5a 0e d2 3e 9b bf e5 be 19 05 85 bc
       -0.031016795 0.41026574 -0.44872746 -0.016237782
000080 1b e9 94 3d 77 55 f9 be 18 86 4c 3e c7 d6 80 3f
       0.07271024 -0.48698017 0.19973028 1.0065545
000090 b6 76 e1 3d c6 bf 32 bd fe c9 03 3f 53 1d 96 3f
       0.110089704 -0.04363992 0.5148009 1.1727699
0000a0 bd c0 b4 3e 06 47 f0 3e 23 d7 ee bd e8 44 8a 3e
       0.35303298 0.46929187 -0.11662128 0.27005696
0000b0 46 a4 a4 3e 0c 62 56 bd 05 41 15 be ed df bf bd
       0.3215658 -0.0523396 -0.14575584 -0.09368882
0000c0 4e 34 a2 bd bd 16 a2 3e 5f 3d 52 3d 83 bc 01 bd
       -0.079201326 0.31657973 0.05132806 -0.03167392
0000d0 3e e3 c7 3d 95 85 1c 3f 26 e0 58 3d af 95 d1 3e
       0.0976014 0.6114133 0.05294814 0.40934512
0000e0 fc 5f 35 3e 62 07 d5 bd a6 e7 29 3e 60 ea 50 be
       0.17712396 -0.10401799 0.16592273 -0.20401907
0000f0 ee 4b 94 3e 6f c4 72 3e 0f 36 84 be ec ce da 3e
       0.2896418 0.23707746 -0.25822493 0.42735994
000100 b7 00 2f bd 22 0e cd 3e 3c f3 61 3e 80 ec b9 3d
       -0.04272529 0.40049845 0.22065443 0.09078312
000110 0c cb 19 3d 94 82 75 be 16 a6 61 bd 8c 53 7d 3e
       0.037547156 -0.23975593 -0.055090033 0.24738902
000120 d2 9f a4 bd ab 2e d0 bb 69 7c 09 3e 49 8c 9b 3d
       -0.08038296 -0.0063532195 0.13426365 0.07595117
000130 f0 69 9b 3e d2 58 5e 3f eb 73 1f bc 18 42 06 3f
       0.3035426 0.8685428 -0.009732227 0.524446
000140 02 68 05 be 0e 0f be bd 40 03 dc be 4e 08 79 be
       -0.13027957 -0.09280215 -0.4297123 -0.24319574
000150 22 6d 6a 3d 46 1e 45 3e 1b 6c 67 3e 46 ce c2 3d
       0.057232983 0.1924983 0.22599833 0.09512
000160 61 ee 81 bd 59 72 b2 3e 3d d9 aa bd c6 3d 08 3f
       -0.06344295 0.34852865 -0.08342216 0.5321926
000170 4b a9 19 be 6c eb 65 be f4 00 c3 3e 04 30 1b 3f
       -0.15005986 -0.22453088 0.38086665 0.6062014
000180 20 66 28 bf 07 4f d6 be f3 76 d5 bd 0c 8a d9 bd
       -0.6578083 -0.41857168 -0.104230784 -0.106220335
000190 9a da 0e bf 56 e8 89 be 1c 5b 29 be b4 d9 bc 3c
       -0.5580231 -0.2693507 -0.16538662 0.023053028
0001a0 88 5e 20 3e 49 65 5d bc 42 0c 93 bc d6 71 46 bd
       0.15661061 -0.013512918 -0.01795018 -0.048448406
0001b0 bb 9a 89 bd b3 b4 24 3f 50 ac b6 bd 45 9e 16 bd
       -0.067189656 0.64338225 -0.08919585 -0.03677203
0001c0 3e ea a1 3d f9 ee 20 3f ee 53 16 3e fa 88 2f 3d
       0.07906006 0.62864643 0.14680454 0.04285524
0001d0 85 85 64 3e 14 52 d7 3d 6a 61 1b bd 04 d7 09 bf
       0.22316559 0.10513702 -0.0379347 -0.5384371
0001e0 39 03 68 be 7d d0 11 3f 34 58 45 bc bb 5c 27 3d
       -0.2265748 0.5695875 -0.012044955 0.04085992
0001f0 07 ce 66 be e5 31 7b bf 6b e9 63 be e8 c3 ba bd
       -0.2253953 -0.9812301 -0.2225701 -0.091193974
000200 f5 24 51 3e 17 4a f4 bd 73 41 68 3d 1a 62 32 bf
       0.20424254 -0.11928194 0.056703042 -0.6968094
000210 7c 7e 99 be 8b e0 6c be 69 62 55 3e eb 01 ac be
       -0.29979312 -0.23132531 0.20838322 -0.33595213
000220 67 1a 25 be 73 55 15 3f 72 7c 45 bc 33 b6 a6 be
       -0.16123353 0.5833351 -0.012053596 -0.32560882
000230 bd 5e 46 bd 4e 9f a2 bd a5 df 65 3e 5b d7 5a bf
       -0.048430193 -0.07940541 0.22448595 -0.85484856
000240 b1 a4 84 be 6f 70 13 3e da 1c c5 3e f4 6b 04 be
       -0.259069 0.14398359 0.38498574 -0.12931806
000250 d9 b4 5b 3e 2f 53 08 bf 73 bc d5 be 90 2f 65 3e
       0.21455707 -0.5325193 -0.41745338 0.22381425
000260 bc 70 d8 3e ee 72 9f bc 03 21 28 3e 28 17 df 3e
       0.4227351 -0.019463982 0.16418843 0.43572354
000270 41 cb 8a bd e9 0c 14 3d 96 a1 16 3e db 9c 2e 3e
       -0.06777049 0.036145125 0.14710078 0.17052023
000280 1c db 57 be 0f 2c fb be f5 75 d1 bd b4 5a ab be
       -0.21079677 -0.49057052 -0.10227577 -0.33467638
000290 5b ed ec bd 85 bb 5c be 4a b7 7f 3c 56 9d 62 3e
       -0.115687095 -0.21555908 0.015607664 0.22130331
0002a0 4e 59 ab 3e de f9 a5 3e 0f 75 5c 3e 1f 3d 71 bc
       0.33466572 0.32417196 0.2152903 -0.014724045
0002b0 a9 f3 b7 3e c9 59 e6 3e 3d d0 8f bd ee 26 a4 bc
       0.35928085 0.44990376 -0.0702214 -0.020038094
0002c0 13 77 47 3e a3 35 1a 3d 17 eb f9 3c 86 dc 00 3f
       0.19479017 0.03764881 0.030507607 0.5033649
0002d0 27 97 26 bc cc 1f e7 3e c5 d8 bd be 96 cd 3c 3c
       -0.010167873 0.45141447 -0.37079445 0.011523625
0002e0 a0 b8 2e 3e 85 0b 03 3f aa 82 b6 3e 3e 97 96 3e
       0.17062616 0.5118945 0.35646564 0.29412264
0002f0 a8 6b 3a 3e 4a 17 07 3e 41 2b a9 3e de e5 ed bd
       0.1820513 0.13192478 0.33040813 -0.11616109
000300 eb c1 0a 3e 53 d2 8e 3e 10 90 50 ba 30 77 8b bd
       0.13550536 0.2789484 -0.00079560373 -0.068098426
000310 4f 49 23 be 6c dd a0 3e fe 39 66 bf 1f f7 a9 3e
       -0.15945934 0.3141893 -0.8993224 0.3319635
000320 63 fa ee 3e e8 62 2b 3f ee d2 33 3f 6f d9 3a 3f
       0.46675405 0.66947794 0.7024373 0.7298803
000330 f7 33 09 be ea 7b af bd d1 44 90 3e 99 0a 44 3c
       -0.1339873 -0.085685566 0.28177503 0.011965417
000340 47 4c 8d 3d 5a 40 35 3e 4b ea 81 be 5a 3f 26 be
       0.068993144 0.1770033 -0.25374064 -0.16235104
000350 b8 ab c5 3d 3f de 21 3d 24 84 0f 3e 5e 0f bd 3e
       0.096518934 0.03951859 0.14015251 0.36925787
000360 9e 07 94 3f f1 d5 65 3f eb ca ce 3e cb e8 ba 3f
       1.1564825 0.89779574 0.4038919 1.4602293
000370 8f ad f2 3e 42 58 2b 3f 50 1a 3b be 5b 98 b2 3d
       0.4739804 0.66931546 -0.18271756 0.08720466
000380 76 57 94 be 59 9f 4a be 7c 55 79 3e d6 53 2a be
       -0.28972977 -0.19787349 0.24349016 -0.16633543
000390 f7 4f d1 bf 15 46 39 3f 58 ce 3a be a1 26 d5 3e
       -1.6352528 0.7237256 -0.18242776 0.41631034
0003a0 86 f0 a1 be d1 e4 b5 3f fe cd 84 3e 2e 90 a5 3e
       -0.31628817 1.4210454 0.2593841 0.32336563
0003b0 1c f5 c4 3d 29 aa 86 3e c0 5f 3e 3e 03 2e 8d be
       0.096170634 0.26301697 0.18591213 -0.27574167

lstm.weight_hh_l0 f4 [40, 10]
000000 37 b0 4a be 59 3b a4 bd 8e fd 5e 3e 88 ab 9e 3e
       -0.19793783 -0.08019132 0.21776411 0.30990243
000010 78 ac 79 bd f8 1f 95 3e cc 67 fa bd ae ea 1e be
       -0.060955495 0.29125953 -0.12226829 -0.1551921
000020 af 6d 68 3f 30 37 78 be 52 90 98 be d3 a6 d7 3d
       0.90792364 -0.24239802 -0.29797608 0.10529866
000030 2e 06 74 3e 97 47 5c bd 1c d5 8b be 12 fd 11 3f
       0.23830482 -0.05377921 -0.27311027 0.5702678
000040 6c e8 07 be 04 36 fd bd 90 fa 8d bd 6b 1e eb bd
       -0.13272256 -0.12363818 -0.06932557 -0.11480411
000050 e6 61 47 bc 1b 97 3e 3c bb 62 91 3e b1 fb 01 bf
       -0.012169337 0.011632706 0.28395638 -0.50774676
000060 1b 25 82 be 37 18 c8 3d 8b 7d 66 3e 81 43 75 3d
       -0.25418934 0.097702436 0.22508828 0.05987883
000070 3b 84 45 3e 5e 23 96 bd 28 f2 7f bf d1 ca 45 be
       0.19288723 -0.073309645 -0.99978876 -0.1931565
000080 43 9c 7c 3f 49 c2 42 3d 1f d5 f1 be 68 e4 77 3f
       0.98675936 0.047548566 -0.4723291 0.96832895
000090 72 15 ef 3e cd f3 88 bf 55 da 94 3f c5 fa 77 bf
       0.4669605 -1.0699402 1.162913 -0.9686702
0000a0 74 62 a7 be 06 65 d4 bd fa de 99 3e c8 b4 20 be
       -0.326923 -0.10370831 0.3005293 -0.15693963
0000b0 66 73 6e be db 3e 59 3e 4d e3 c3 3e 5f 2f 51 3e
       -0.23286209 0.21215384 0.38259354 0.20428227
0000c0 33 10 59 3e 88 66 b1 3e 18 37 e1 be 34 ca 0e bf
       0.21197586 0.34648538 -0.43987346 -0.5577729
0000d0 37 4d ee bd 09 ab ab bf a7 1e 32 3e ba 0c 75 3d
       -0.11635821 -1.3411571 0.17394505 0.05982659
0000e0 7e 7c d8 be 92 60 2f be 8c 6d 02 be a9 c6 7f 3d
       -0.4228248 -0.17126682 -0.12737101 0.062445316
0000f0 1b ae dd be 96 1f 3d bd 97 d9 c3 3e d4 a0 7e be
       -0.43296894 -0.0461727 0.38251945 -0.24866039
000100 16 ba 11 bf 65 27 fc 3d 03 31 52 3e 82 c4 90 be
       -0.5692457 0.123122014 0.20526509 -0.28274924
000110 7e b7 3b 3f e6 46 41 3e d6 5c 32 3e b9 e9 01 be
       0.7332686 0.18874702 0.17418227 -0.12686814
000120 5f 8e 6c bd 72 59 97 be 28 1e b7 bd d3 42 0b 3e
       -0.057752963 -0.2956043 -0.08941299 0.1359971
000130 40 2e bb b7 0b 51 73 3e f9 04 85 3d d4 bf b5 3e
       -2.2313674e-05 0.23761384 0.06495089 0.35497916
000140 ed 0f 21 3d 66 c1 31 3e 20 a3 1f be 2e 1f e2 bd
       0.03932183 0.17358932 -0.15589571 -0.11041103
000150 da 24 97 3e 6c 96 49 3e ba ea a5 3e 69 e5 23 3d
       0.29520303 0.19686288 0.32405645 0.040013704
000160 12 ef cf 3c fa 44 3f 3e 4b 2c a6 be e1 82 ba 3d
       0.025382552 0.18678656 -0.32455668 0.091069944
000170 de b2 9c 3d 43 4b 4d be 87 14 6b bb e4 41 ce bd
       0.07651304 -0.20048241 -0.003587039 -0.100711614
000180 2a 95 d3 be f3 7f e2 be 39 61 99 3e 7f bd 69 be
       -0.4132474 -0.44238243 0.29956988 -0.22826193
000190 9d 31 b9 bc 97 80 ad be d6 eb b9 bc 29 e0 c0 be
       -0.022606665 -0.3388717 -0.022695463 -0.3767102
0001a0 ff ff 32 3e fa 4a 6b 3e 9c 1f c5 be 75 92 80 3d
       0.17480467 0.2297782 -0.3850068 0.062779345
0001b0 f0 33 9c be f5 44 9f bd c4 b6 e3 bc 5c f9 cb bd
       -0.30508375 -0.077768244 -0.02779711 -0.09959671
0001c0 61 14 6b 3e 35 48 43 be ab ed 4f 3e 36 a6 bd 3d
       0.22956993 -0.19070514 0.20305507 0.09260218
0001d0 0b 8f 56 be 90 26 6b 3e f1 0f a0 bd 41 1e 23 be
       -0.20953004 0.22963929 -0.078155406 -0.1592951
0001e0 01 36 87 3d 8b 9f cb be 29 0b 2c 3e 40 52 04 bf
       0.06602097 -0.3977016 0.16801132 -0.51688004
0001f0 fe fb b8 be 99 73 48 3e a7 3e af 3e 50 c2 65 3b
       -0.36129755 0.19575347 0.34227487 0.0035058446
000200 4e df 7e be e9 a6 af be 77 2a 88 be 06 0c a9 be
       -0.24889871 -0.3430703 -0.26594898 -0.33016986
000210 c7 d4 6c be b4 79 9f 3d fc 84 f5 bc c8 8c fd be
       -0.23128043 0.07786885 -0.029970638 -0.4952147
000220 07 a2 b3 3c d5 43 76 3e 6d 1f f7 be 8a 92 a9 bb
       0.021927847 0.24049313 -0.48266163 -0.0051749395
000230 e2 44 7e 3e 0b 3d e6 3d 5d a2 87 3e c4 53 a2 3e
       0.24830964 0.11242112 0.2649106 0.31704533
000240 60 22 ce bd 97 20 e2 3d 12 35 24 be 79 09 6b 3e
       -0.1006515 0.11041372 -0.1603587 0.22952832
000250 67 a2 13 be c2 bf c5 3e 60 57 86 be 00 c3 25 bf
       -0.1441742 0.38622862 -0.26238537 -0.6475067
000260 1d 67 f5 3e e1 87 3f bf 27 51 c3 be 90 b4 17 3f
       0.47930232 -0.7481671 -0.38147852 0.5925989
000270 86 ae 81 be ea 82 b6 bd 98 04 5b 3e 08 cf 8a be
       -0.25328463 -0.089116886 0.21388471 -0.27111077
000280 5d 2d 5b be ee a4 f0 be 7f d2 a9 bd 4b c7 a0 be
       -0.21404023 -0.4700083 -0.08292102 -0.31402048
000290 27 c7 ae 3d 35 59 18 3e 86 b3 2d bf 35 b6 27 3f
       0.08534079 0.1487778 -0.67852056 0.655124
0002a0 6c 7f dd be 22 22 19 3f fc a1 b4 3d 00 2b a7 3d
       -0.43261278 0.5981771 0.088199586 0.081624985
0002b0 d7 3b 8d be eb 0b 57 be 23 54 58 3d d2 be 8c bd
       -0.27584717 -0.2100064 0.052814614 -0.068723336
0002c0 7a 50 d9 bd 85 34 cd 3d d3 58 ce bd 5d 0f c5 3d
       -0.10611053 0.10019783 -0.100755356 0.09622071
0002d0 da ce b6 3e 32 3a 1f 3e 41 24 ed be 71 8c a2 3e
       0.3570469 0.15549543 -0.46316722 0.31747773
0002e0 cf 00 ed 3e 4b 46 b8 be ac 43 06 3d e0 05 1c 3e
       0.4628968 -0.3599113 0.03277938 0.15236616
0002f0 ea bd 63 3d de a2 7f 3e d1 8d bb be cb 25 c2 3c
       0.055601038 0.24964473 -0.36631635 0.023699662
000300 1d f6 1b be 39 a4 56 be 13 1f 6e be c9 47 68 3e
       -0.15230604 -0.20961083 -0.23254041 0.22683634
000310 c5 7f 04 bf b5 2b 2c be 61 59 9e 3e f5 d3 08 3c
       -0.5175746 -0.16813548 0.30927566 0.008351316
000320 e9 24 a1 bd 32 a1 5a 3d 3d 37 51 bb 0e e9 08 3f
       -0.07868368 0.053376384 -0.0031923794 0.53480613
000330 9c d2 43 be f9 b5 3b be 12 07 69 3e 02 20 68 be
       -0.1912331 -0.18331136 0.22756603 -0.2266846
000340 ac bf 3b bd d5 ac c0 3d 11 75 7d bd 60 00 29 3e
       -0.04583709 0.09407965 -0.06187922 0.1650405
000350 22 a7 c6 3d 14 d4 10 3d f3 99 43 3e 82 a2 f9 3c
       0.09699847 0.035358503 0.19101696 0.030472998
000360 f5 2f 9a 3e 4f 0e c9 be f4 23 b7 bd 6d 88 fb bd
       0.30114713 -0.3926873 -0.089424044 -0.122818805
000370 ad 17 03 be aa 4b a3 be 14 a0 38 3e 1b 61 c3 be
       -0.12802 -0.31893665 0.18029815 -0.38160023
000380 eb de be bd 13 27 20 3e 6c 25 e8 3d 50 7c 80 be
       -0.09319862 0.15639906 0.11335263 -0.25094843
000390 58 63 84 3e f1 76 21 3e f4 0d 3d bd d0 b4 52 3e
       0.25857043 0.15768029 -0.046155885 0.20576787
0003a0 0c 9d e2 3e a4 6c 99 be 33 f1 a9 be 1d 31 95 3e
       0.44260442 -0.299657 -0.33191833 0.29139033
0003b0 c9 be 9a bc d7 81 6d be 1a 4c 1f 3e d5 02 54 bf
       -0.018889802 -0.23194061 0.15556374 -0.8281682
0003c0 bc 2f 38 3e 3e 67 35 3d 1f ab 3f be 00 41 ad be
       0.17986959 0.044287913 -0.18717621 -0.33838654
0003d0 f8 da b4 be 4e f5 1f 3e d8 9b a3 3e 76 e1 c7 bc
       -0.3532331 0.1562092 0.31954837 -0.0243995
0003e0 cc db 18 3e e2 22 cb bc 3b e7 19 be c9 dc 55 bc
       0.14927596 -0.024796907 -0.15029614 -0.013053128
0003f0 27 d1 fa bc 00 0a 6f bf 02 69 0b 3e 52 58 57 bd
       -0.03061731 -0.93374634 0.13614276 -0.052574463

lstm.bias_ih_l0 f4 [40]
000000 75 2d f9 3e 4f 2c ae 3e 34 fc 23 3e 1d 7c a7 3f
       0.48667493 0.3401818 0.16014177 1.3084751
000010 a5 ef 3e be fe 10 62 3e 90 ed db 3e 58 d5 66 be
       -0.18646105 0.22076795 0.42954683 -0.22542322
000020 12 cb 44 be 70 8f 3a 3e 4f fe 3d be 62 b2 8f bd
       -0.1921809 0.1821878 -0.18554042 -0.07016446
000030 b5 b5 96 3d 5f 7a a1 be 18 ac b8 3b c2 6f c1 3c
       0.073588766 -0.31538674 0.0056357495 0.02361286
000040 e8 e2 2d 3d 26 2e ff 3c 8d 89 1b 3e 92 6c ea bc
       0.042452723 0.031149935 0.1518919 -0.028616223
000050 fd da 67 3e b1 22 c0 bc 17 d0 9f ba 31 62 00 3d
       0.22642131 -0.023454042 -0.0012192753 0.031343643
000060 e4 c7 5a be 27 98 81 bd 89 38 7d be 6c 79 ad bd
       -0.21365315 -0.06327849 -0.24728598 -0.08470425
000070 22 25 9f 3e 43 c0 47 be 57 3c 00 be 54 1f 72 3e
       0.31083018 -0.19506936 -0.12523018 0.23644763
000080 b0 55 14 be 28 ff c8 3e 16 23 b1 3e cd 14 7b 3e
       -0.14485812 0.3925717 0.3459708 0.24519654
000090 b0 67 32 3f e1 75 97 be 20 2a 82 be fb de cd 3e
       0.69689465 -0.29582122 -0.25422764 0.40209183

lstm.bias_hh_l0 f4 [40]
000000 fe c0 53 3e 3e 49 88 bd 82 ca 85 3e 6f c5 86 3f
       0.2067909 -0.06654595 0.26131064 1.0529002
000010 b3 7e 27 3e 50 3f ac be 88 f4 b3 3e 64 fd c0 3b
       0.16356926 -0.33642054 0.351475 0.0058895815
000020 61 06 a2 bd 3d 99 d3 bc 77 cb 8d 3e ce 7c ff 3c
       -0.07911373 -0.025829906 0.27694294 0.031187441
000030 f0 6c 4e bd 9d 29 a2 be 30 c1 b4 be 02 36 28 3d
       -0.05039686 -0.31672373 -0.3530364 0.04106713
000040 fc 12 10 3d 69 3b a5 be 71 56 16 3e 8b a2 06 3e
       0.035174355 -0.3227189 0.14681412 0.13147943
000050 de d8 7a 3b c1 ad 74 3e 9b 75 5f 3e 29 77 10 3e
       0.0038276236 0.23894407 0.21822207 0.14107956
000060 30 87 e6 bc 43 32 5f be af d3 7b 3e 05 af 0d 3e
       -0.028140634 -0.21796517 0.2459247 0.13836296
000070 78 93 d4 3c c0 e1 de bd fe a6 01 3e dd 35 96 bd
       0.025949225 -0.10882902 0.12661359 -0.07334492
000080 7d ca 4a bd f5 16 53 3f fd 48 20 be b5 bd 52 3e
       -0.049509514 0.82456905 -0.15652843 0.2058018
000090 63 51 ee 3e c3 ef 0b 3e 87 eb c4 bd fb f8 30 be
       0.46546468 0.1366568 -0.09615236 -0.17282479

fc.weight f4 [1, 10]
000000 70 ae a7 be 81 ba ac be bd e5 a8 3e ae a1 4d be
       -0.32750273 -0.3373604 0.32987776 -0.20081207
000010 65 77 89 be 8a 58 3b 3e 33 b6 3c be bc e3 47 be
       -0.26848903 0.18295494 -0.18428878 -0.19520468
000020 45 46 70 3e 95 84 c9 3e
       0.23464306 0.39358965
